…
[666, 633, 647, 643, 632, 652, 670, 655, 660, 644]
(6502, 32, 32)
2020-08-24 09:13:44.466937: I tensorflow/compiler/xla/service/service.cc:168] XLA service 0x7fcafefbbf70 initialized for platform Host (this does not guarantee that XLA will be used). Devices:
2020-08-24 09:13:44.466961: I tensorflow/compiler/xla/service/service.cc:176]   StreamExecutor device (0): Host, Default Version
Model: "sequential"
_________________________________________________________________
Layer (type)                 Output Shape              Param #   
=================================================================
conv2d (Conv2D)              (None, 28, 28, 60)        1560      
_________________________________________________________________
batch_normalization (BatchNo (None, 28, 28, 60)        240       
_________________________________________________________________
conv2d_1 (Conv2D)            (None, 24, 24, 60)        90060     
_________________________________________________________________
batch_normalization_1 (Batch (None, 24, 24, 60)        240       
_________________________________________________________________
max_pooling2d (MaxPooling2D) (None, 12, 12, 60)        0         
_________________________________________________________________
dropout (Dropout)            (None, 12, 12, 60)        0         
_________________________________________________________________
conv2d_2 (Conv2D)            (None, 10, 10, 120)       64920     
_________________________________________________________________
batch_normalization_2 (Batch (None, 10, 10, 120)       480       
_________________________________________________________________
conv2d_3 (Conv2D)            (None, 8, 8, 120)         129720    
_________________________________________________________________
batch_normalization_3 (Batch (None, 8, 8, 120)         480       
_________________________________________________________________
max_pooling2d_1 (MaxPooling2 (None, 4, 4, 120)         0         
_________________________________________________________________
dropout_1 (Dropout)          (None, 4, 4, 120)         0         
_________________________________________________________________
flatten (Flatten)            (None, 1920)              0         
_________________________________________________________________
dense (Dense)                (None, 512)               983552    
_________________________________________________________________
dropout_2 (Dropout)          (None, 512)               0         
_________________________________________________________________
dense_1 (Dense)              (None, 1024)              525312    
_________________________________________________________________
dropout_3 (Dropout)          (None, 1024)              0         
_________________________________________________________________
dense_2 (Dense)              (None, 10)                10250     
=================================================================
Total params: 1,806,814
Trainable params: 1,806,094
Non-trainable params: 720
_________________________________________________________________
None
Epoch 1/20
130/130 - 96s - loss: 0.8603 - accuracy: 0.7378 - val_loss: 1.5979 - val_accuracy: 0.5148 - lr: 0.0010
Epoch 2/20
130/130 - 94s - loss: 0.2224 - accuracy: 0.9310 - val_loss: 1.3569 - val_accuracy: 0.5160 - lr: 9.0000e-04
…
